PixelCNN_MNIST.pth (torch, 35066 bytes, 18 tensors)

conv1.weight f4 [10, 1, 7, 7]
0.063107744 -0.121379666 -0.11509611 -0.4608642 0.4582498 0.22101896 0.19665371 0.22017266
-0.36593828 0.1003445 -2.8404007 0.86600757 0.65041 -0.3258 -0.00207618 1.2217568
-1.2821704 -32.298622 -1.2946802 -0.47389516 -0.24631754 -0.07019084 -0.24428931 1.1734746
-0.0690688 -0.063531354 -0.05823158 -0.053086437 -0.014674297 -0.03627683 -0.062499665 -0.064927734
-0.06356892 -0.062490024 -0.06341074 -0.047791548 -0.061764207 -0.06624363 -0.06497388 -0.066026285
-0.06344467 -0.05185186 -0.06311445 -0.062459238 -0.06432428 -0.06567676 -0.06416826 -0.04263015
-0.012717923 0.00071776996 -0.018864237 0.035900366 0.020262608 -0.19190575 -0.0015633797 0.06523067
-0.035257027 0.11677262 -0.16121973 -0.07458335 0.1342358 0.23521072 0.22735804 -0.019690618
-0.087545715 0.19473016 0.57283396 -0.7589331 -0.34950808 -0.14390418 0.087089404 -1.7927924
-35.867214 -0.07093375 -0.07079921 -0.067981586 -0.060133923 -0.044042654 -0.06734542 -0.070240326
-0.07180702 -0.07133141 -0.069491155 -0.06531269 -0.07345451 -0.072990544 -0.07169448 -0.07117604
-0.07024407 -0.067525916 -0.057068918 -0.0734008 -0.07217882 -0.07198109 -0.07221286 -0.06979105
-0.05485116 -0.024189785 -0.21155025 0.03329941 -0.011630387 -0.11128224 -0.7124664 -0.1683579
-0.87074935 -0.08330947 0.1957426 -0.49103263 -1.2323459 -0.861307 -5.3410754 -6.621547
0.21086316 -0.44583523 -0.42683834 2.0939205 -0.32387808 -2.2810283 0.63463986 -0.06969405
0.07635573 -0.53562814 0.064791344 0.067231074 0.06884356 0.06696993 -0.009744203 0.023939969
0.061715085 0.06545751 0.066304654 0.06654564 0.06641696 0.01062441 0.054573007 0.06706059
0.06538602 0.06615981 0.06507717 0.063456364 0.030110769 0.059408415 0.06743236 0.066105455
0.06543762 0.06250134 0.05737722 0.10850918 0.109219655 -0.10479614 -0.0154871 -0.0777411
0.027697552 -0.002982789 0.09841504 0.08469815 -0.04567515 0.059588417 -0.16358884 -0.010289302
0.014206825 -0.09789276 0.047944523 -39.91612 0.25429672 -0.06400097 0.046039503 0.031128928
-0.00085639453 -0.15148309 0.55143726 0.059434216 0.044657856 0.021295197 0.0025398864 0.002002475
0.0035904723 0.022675544 0.0509329 0.046226148 0.029151525 0.0014426812 0.0112406695 0.011291122
0.031620994 0.045368917 0.04391913 0.023335017 -0.0103405425 0.00830243 0.016017618 0.03200993
0.03886443 0.031555045 -0.004678784 -0.020535365 -0.76199573 0.4284152 -0.49224427 -1.0024939
-0.15997857 -1.1695914 -0.036116 -0.18707511 -0.9918431 -0.5459011 3.3779542 6.308654
1.3090217 -0.3275045 -0.20599616 -0.39557204 0.37319642 -5.207637 -4.65875 -0.25123525
1.0530947 0.21515319 3.2737823 -13.787909 -0.06605818 -0.0582071 -0.04194206 -0.013188973
-0.011460534 -0.031375803 -0.055075116 -0.057338797 -0.05540327 -0.046108726 -0.014902102 -0.042808138
-0.049655233 -0.055018805 -0.055273272 -0.054431416 -0.042288877 -0.0006570773 -0.049288277 -0.05259175
-0.05473871 -0.056641825 -0.0530975 -0.024939427 0.011036872 0.08154353 -0.09200777 -0.056022912
-0.12864172 -0.34438795 -0.11530706 -0.7398999 -0.050177295 -0.03918217 -0.2126356 0.6516821
00000000: a23e 813d e795 f8bd 82b7 ebbd 64f6 ebbe
00000010: b89f ea3e cb52 623e 975f 493e f174 613e
00000020: 435c bbbe 6b81 cd3d 20c9 35c0 acb2 5d3f
00000030: 4581 263f 42cf a6be 8510 08bb 8762 9c3f
00000040: 291e a4bf ca31 01c2 15b8 a5bf 63a2 f2be
00000050: aa3a 7cbe 37c0 8fbd fa26 7abe 6a34 963f
00000060: f173 8dbd ba1c 82bd 3d84 6ebd 2a71 59bd
00000070: 766c 70bc 0397 14bd a6ff 7fbd d5f8 84bd
00000080: 6c30 82bd 8af5 7fbd 7ddd 81bd 12c1 43bd
00000090: 77fc 7cbd beaa 87bd 0711 85bd ca38 87bd
000000a0: 47ef 81bd 9e62 54bd 2642 81bd 42d5 7fbd
000000b0: 73bc 83bd 8a81 86bd a66a 83bd f49c 2ebd
000000c0: d65e 50bc ba28 3c3a 2c89 9abc 430c 133d
000000d0: c5fd a53c f182 44be 51ea ccba a897 853d
000000e0: ac69 10bd 7c26 ef3d c916 25be 28bf 98bd
000000f0: 1c75 093e 14db 703e 8cd0 683e 384e a1bc
00000100: 2b4b b3bd 5867 473e 3fa5 123f 7149 42bf
00000110: b9f2 b2be 9e5b 13be ee5b b23d 397a e5bf
00000120: 0778 0fc2 b745 91bd 2dff 90bd ee39 8bbd
00000130: fd4e 76bd 1266 34bd 65ec 89bd 29da 8fbd
00000140: 8f0f 93bd 3416 92bd 6151 8ebd a9c2 85bd
00000150: 516f 96bd 117c 95bd 8ed4 92bd bec4 91bd
00000160: 1fdc 8fbd 074b 8abd 19c1 69bd 2953 96bd
00000170: 7dd2 93bd d26a 93bd 56e4 93bd 9cee 8ebd
00000180: 9cab 60bd a829 c6bc a1a0 58be f664 083d
00000190: 618d 3ebc f1e7 e3bd 3364 36bf 0366 2cbe
000001a0: 6ee9 5ebf 289e aabd c070 483e a168 fbbe
000001b0: 83bd 9dbf 9e7e 5cbf 17ea aac0 b7e3 d3c0
000001c0: 83ec 573e 8444 e4be 8e8a dabe cb02 0640
000001d0: 59d3 a5be 5efc 11c0 c277 223f c1bb 8ebd
000001e0: 6560 9c3d ed1e 09bf 53b1 843d 72b0 893d
000001f0: dafd 8c3d 8827 893d 26a6 1fbc c11d c43c
00000200: f5c8 7c3d 960e 863d bcca 873d 1549 883d
00000210: 9d05 883d 0112 2e3c f287 5f3d 1057 893d
00000220: 1be9 853d cb7e 873d 2e47 853d 69f5 813d
00000230: dcaa f63c 3d56 733d fa19 8a3d 4c62 873d
00000240: 2904 863d b400 803d 6004 6b3d 103a de3d
00000250: 8eae df3d 5c9f d6bd 9bbd 7dbc ba36 9fbd
00000260: fae5 e23c e57a 43bb d38d c93d 3976 ad3d
00000270: de15 3bbd fc12 743d d583 27be 7694 28bc
00000280: bec3 683c 007c c8bd 7a61 443d 1baa 1fc2
00000290: 2e33 823e f112 83bd eb93 3c3d 1802 ff3c
000002a0: aa7f 60ba 621e 1bbe fe2a 0d3f 4b71 733d
000002b0: 28eb 363d 4473 ae3c 3974 263b f53b 033b
000002c0: 214e 6b3b 10c2 b93c 049f 503d a157 3d3d
000002d0: 2ecf ee3c 5918 bd3a c92a 383c 66fe 383c
000002e0: 0485 013d c2d4 393d 8ce4 333d 1429 bf3c
000002f0: 616b 29bc ea06 083c 6137 833c d81c 033d
00000300: 4f30 1f3d dd3f 013d 7c50 99bb c839 a8bc
00000310: 2712 43bf 3d59 db3e 7107 fcbe b851 80bf
00000320: 6cd1 23be 2cb5 95bf 5fee 13bd 9e90 3fbe
00000330: 6ee9 7dbf 2dc0 0bbf 6730 5840 7ee0 c940
00000340: 068e a73f abae a7be a8f0 52be 6b88 cabe
00000350: 9a13 bf3e f6a4 a6c0 7b14 95c0 e8a1 80be
00000360: cfcb 863f 1e51 5c3e a685 5140 469b 5cc1
00000370: 8349 87bd 916a 6ebd 70cb 2bbd 9016 58bc
00000380: f7c4 3bbc ea83 00bd 7296 61bd 16dc 6abd
00000390: 8aee 62bd 81dc 3cbd f227 74bc 9657 2fbd
000003a0: 4963 4bbd 665b 61bd 3a66 62bd 7af3 5ebd
000003b0: 1a37 2dbd b63f 2cba 81e2 49bd 726a 57bd
000003c0: b335 60bd 4201 68bd c47c 59bd c54d ccbc
000003d0: ffd3 343c 4b00 a73d 926e bcbd 4878 65bd
000003e0: a8ba 03be 9e53 b0be 1c26 ecbd 146a 3dbf
000003f0: b586 4dbd 7c7d 20bd 26bd 59be a3d4 263f

conv1.bias f4 [10]
-9.510264 -10.306312 -3.0019429 -14.847869 -4.5798945 0.7742646 -21.922161 -0.5010142
1.0377584 -9.418253
00000000: 0b2a 18c1 a7e6 24c1 d51f 40c0 df90 6dc1
00000010: 7f8e 92c0 3436 463f 9660 afc1 7742 00bf
00000020: 44d5 843f 2ab1 16c1

conv1.mask f4 [10, 1, 7, 7]
1.0 1.0 1.0 1.0 1.0 1.0 1.0 1.0
1.0 1.0 1.0 1.0 1.0 1.0 1.0 1.0
1.0 1.0 1.0 1.0 1.0 1.0 1.0 1.0
0.0 0.0 0.0 0.0 0.0 0.0 0.0 0.0
0.0 0.0 0.0 0.0 0.0 0.0 0.0 0.0
0.0 0.0 0.0 0.0 0.0 0.0 0.0 0.0
0.0 1.0 1.0 1.0 1.0 1.0 1.0 1.0
1.0 1.0 1.0 1.0 1.0 1.0 1.0 1.0
1.0 1.0 1.0 1.0 1.0 1.0 1.0 1.0
1.0 0.0 0.0 0.0 0.0 0.0 0.0 0.0
0.0 0.0 0.0 0.0 0.0 0.0 0.0 0.0
0.0 0.0 0.0 0.0 0.0 0.0 0.0 0.0
0.0 0.0 1.0 1.0 1.0 1.0 1.0 1.0
1.0 1.0 1.0 1.0 1.0 1.0 1.0 1.0
1.0 1.0 1.0 1.0 1.0 1.0 1.0 1.0
1.0 1.0 0.0 0.0 0.0 0.0 0.0 0.0
0.0 0.0 0.0 0.0 0.0 0.0 0.0 0.0
0.0 0.0 0.0 0.0 0.0 0.0 0.0 0.0
0.0 0.0 0.0 1.0 1.0 1.0 1.0 1.0
1.0 1.0 1.0 1.0 1.0 1.0 1.0 1.0
1.0 1.0 1.0 1.0 1.0 1.0 1.0 1.0
1.0 1.0 1.0 0.0 0.0 0.0 0.0 0.0
0.0 0.0 0.0 0.0 0.0 0.0 0.0 0.0
0.0 0.0 0.0 0.0 0.0 0.0 0.0 0.0
0.0 0.0 0.0 0.0 1.0 1.0 1.0 1.0
1.0 1.0 1.0 1.0 1.0 1.0 1.0 1.0
1.0 1.0 1.0 1.0 1.0 1.0 1.0 1.0
1.0 1.0 1.0 1.0 0.0 0.0 0.0 0.0
0.0 0.0 0.0 0.0 0.0 0.0 0.0 0.0
0.0 0.0 0.0 0.0 0.0 0.0 0.0 0.0
0.0 0.0 0.0 0.0 0.0 1.0 1.0 1.0
1.0 1.0 1.0 1.0 1.0 1.0 1.0 1.0
00000000: 0000 803f 0000 803f 0000 803f 0000 803f
00000010: 0000 803f 0000 803f 0000 803f 0000 803f
00000020: 0000 803f 0000 803f 0000 803f 0000 803f
00000030: 0000 803f 0000 803f 0000 803f 0000 803f
00000040: 0000 803f 0000 803f 0000 803f 0000 803f
00000050: 0000 803f 0000 803f 0000 803f 0000 803f
00000060: 0000 0000 0000 0000 0000 0000 0000 0000
00000070: 0000 0000 0000 0000 0000 0000 0000 0000
00000080: 0000 0000 0000 0000 0000 0000 0000 0000
00000090: 0000 0000 0000 0000 0000 0000 0000 0000
000000a0: 0000 0000 0000 0000 0000 0000 0000 0000
000000b0: 0000 0000 0000 0000 0000 0000 0000 0000
000000c0: 0000 0000 0000 803f 0000 803f 0000 803f
000000d0: 0000 803f 0000 803f 0000 803f 0000 803f
000000e0: 0000 803f 0000 803f 0000 803f 0000 803f
000000f0: 0000 803f 0000 803f 0000 803f 0000 803f
00000100: 0000 803f 0000 803f 0000 803f 0000 803f
00000110: 0000 803f 0000 803f 0000 803f 0000 803f
00000120: 0000 803f 0000 0000 0000 0000 0000 0000
00000130: 0000 0000 0000 0000 0000 0000 0000 0000
00000140: 0000 0000 0000 0000 0000 0000 0000 0000
00000150: 0000 0000 0000 0000 0000 0000 0000 0000
00000160: 0000 0000 0000 0000 0000 0000 0000 0000
00000170: 0000 0000 0000 0000 0000 0000 0000 0000
00000180: 0000 0000 0000 0000 0000 803f 0000 803f
00000190: 0000 803f 0000 803f 0000 803f 0000 803f
000001a0: 0000 803f 0000 803f 0000 803f 0000 803f
000001b0: 0000 803f 0000 803f 0000 803f 0000 803f
000001c0: 0000 803f 0000 803f 0000 803f 0000 803f
000001d0: 0000 803f 0000 803f 0000 803f 0000 803f
000001e0: 0000 803f 0000 803f 0000 0000 0000 0000
000001f0: 0000 0000 0000 0000 0000 0000 0000 0000
00000200: 0000 0000 0000 0000 0000 0000 0000 0000
00000210: 0000 0000 0000 0000 0000 0000 0000 0000
00000220: 0000 0000 0000 0000 0000 0000 0000 0000
00000230: 0000 0000 0000 0000 0000 0000 0000 0000
00000240: 0000 0000 0000 0000 0000 0000 0000 803f
00000250: 0000 803f 0000 803f 0000 803f 0000 803f
00000260: 0000 803f 0000 803f 0000 803f 0000 803f
00000270: 0000 803f 0000 803f 0000 803f 0000 803f
00000280: 0000 803f 0000 803f 0000 803f 0000 803f
00000290: 0000 803f 0000 803f 0000 803f 0000 803f
000002a0: 0000 803f 0000 803f 0000 803f 0000 0000
000002b0: 0000 0000 0000 0000 0000 0000 0000 0000
000002c0: 0000 0000 0000 0000 0000 0000 0000 0000
000002d0: 0000 0000 0000 0000 0000 0000 0000 0000
000002e0: 0000 0000 0000 0000 0000 0000 0000 0000
000002f0: 0000 0000 0000 0000 0000 0000 0000 0000
00000300: 0000 0000 0000 0000 0000 0000 0000 0000
00000310: 0000 803f 0000 803f 0000 803f 0000 803f
00000320: 0000 803f 0000 803f 0000 803f 0000 803f
00000330: 0000 803f 0000 803f 0000 803f 0000 803f
00000340: 0000 803f 0000 803f 0000 803f 0000 803f
00000350: 0000 803f 0000 803f 0000 803f 0000 803f
00000360: 0000 803f 0000 803f 0000 803f 0000 803f
00000370: 0000 0000 0000 0000 0000 0000 0000 0000
00000380: 0000 0000 0000 0000 0000 0000 0000 0000
00000390: 0000 0000 0000 0000 0000 0000 0000 0000
000003a0: 0000 0000 0000 0000 0000 0000 0000 0000
000003b0: 0000 0000 0000 0000 0000 0000 0000 0000
000003c0: 0000 0000 0000 0000 0000 0000 0000 0000
000003d0: 0000 0000 0000 803f 0000 803f 0000 803f
000003e0: 0000 803f 0000 803f 0000 803f 0000 803f
000003f0: 0000 803f 0000 803f 0000 803f 0000 803f

block.conv1.weight f4 [5, 10, 1, 1]
-0.6061696 -0.72646683 0.01183366 -3.202597 1.612252 -0.26906425 1.7861909 0.010200594
-0.32974765 -0.010669232 0.26818916 0.53062564 0.0269816 -0.24254294 0.29687986 0.99459565
0.32087582 -0.34847483 -0.38007146 2.7070127 2.3090265 1.3349028 -0.7241947 -3.6742187
1.162752 -1.7728907 2.3060682 -2.0404546 -0.5496888 2.932491 -2.9646053 -3.1845658
-1.0862416 2.101071 -2.065877 -0.3933052 -1.7061335 2.159218 -1.9304851 1.6828058
1.7498138 -0.9087185 1.4796053 1.2203678 -0.29331535 1.8086976 -2.5103781 -2.1750326
6.3777294 -3.124976
00000000: ee2d 1bbf bbf9 39bf f8e1 413c 59f7 4cc0
00000010: 465e ce3f cac2 89be e7a1 e43f 6420 273c
00000020: afd4 a8be 01ce 2ebc 1750 893e 15d7 073f
00000030: 8408 dd3c 2d5d 78be a300 983e d29d 7e3f
00000040: d649 a43e 4b6b b2be ba98 c2be b23f 2d40
00000050: 17c7 1340 18de aa3f d364 39bf 6626 6bc0
00000060: 0fd5 943f 15ee e2bf 9f96 1340 cf96 02c0
00000070: 68b8 0cbf efad 3b40 18bc 3dc0 edcf 4bc0
00000080: f709 8bbf f277 0640 5437 04c0 4d5f c9be
00000090: 9562 dabf a130 0a40 231a f7bf 2e66 d73f
000000a0: e6f9 df3f c7a1 68bf b563 bd3f 0335 9c3f
000000b0: 6e2d 96be 6783 e73f 09aa 20c0 bc33 0bc0
000000c0: 5c16 cc40 9bff 47c0

block.conv1.bias f4 [5]
-0.6172067 -0.22631906 -2.7313805 0.59873754 1.6331893
00000000: 4201 1ebf 2fc0 67be f0ce 2ec0 dd46 193f
00000010: 590c d13f

block.conv1.mask f4 [5, 10, 1, 1]
1.0 1.0 1.0 1.0 1.0 1.0 1.0 1.0
1.0 1.0 1.0 1.0 1.0 1.0 1.0 1.0
1.0 1.0 1.0 1.0 1.0 1.0 1.0 1.0
1.0 1.0 1.0 1.0 1.0 1.0 1.0 1.0
1.0 1.0 1.0 1.0 1.0 1.0 1.0 1.0
1.0 1.0 1.0 1.0 1.0 1.0 1.0 1.0
1.0 1.0
00000000: 0000 803f 0000 803f 0000 803f 0000 803f
00000010: 0000 803f 0000 803f 0000 803f 0000 803f
00000020: 0000 803f 0000 803f 0000 803f 0000 803f
00000030: 0000 803f 0000 803f 0000 803f 0000 803f
00000040: 0000 803f 0000 803f 0000 803f 0000 803f
00000050: 0000 803f 0000 803f 0000 803f 0000 803f
00000060: 0000 803f 0000 803f 0000 803f 0000 803f
00000070: 0000 803f 0000 803f 0000 803f 0000 803f
00000080: 0000 803f 0000 803f 0000 803f 0000 803f
00000090: 0000 803f 0000 803f 0000 803f 0000 803f
000000a0: 0000 803f 0000 803f 0000 803f 0000 803f
000000b0: 0000 803f 0000 803f 0000 803f 0000 803f
000000c0: 0000 803f 0000 803f

block.conv2.weight f4 [5, 5, 3, 3]
-0.89890563 -0.20674749 0.07510468 0.79151416 2.181443 3.7442289e-38 3.6853796e-38 3.6641917e-38
3.6229344e-38 0.7896815 0.3601978 0.53600967 -0.40494773 -0.5661189 -3.7521367e-38 -3.7364668e-38
-3.7183452e-38 -3.7100327e-38 -0.9645518 -1.7898287 -0.2527765 -1.6469448 -2.595839 3.647027e-38
3.6298103e-38 3.5941033e-38 3.521537e-38 -0.10817907 0.5154183 1.5970421 2.5616186 2.1907113
3.544489e-38 3.3743026e-38 2.8817745e-38 2.2449429e-38 4.67749 1.842927 3.1883354 2.0979302
-0.39927873 -3.8390892e-38 -3.7555396e-38 -3.7229258e-38 -3.6369852e-38 -0.53371626 -0.37208557 -0.45076782
-0.29147848 -0.54469275 -3.9232375e-38 -3.9233227e-38 -3.9232742e-38 -3.9232327e-38 -0.5578149 -0.46729815
-0.56083626 -0.3047295 -0.44620422 -3.9236323e-38 -3.923627e-38 -3.9236295e-38 -3.9236346e-38 -0.46533057
-0.5448909 -0.5535449 -0.29470992 -0.30197278 -3.9236349e-38 -3.9236349e-38 3.9236349e-38 3.9236332e-38
-0.3461742 -0.38809356 -0.5660644 -0.54849553 -0.47091454 -3.9228975e-38 -3.9230572e-38 -3.9229793e-38
-3.9228885e-38 -0.5692845 -0.5654833 -0.2837311 -0.5622282 -0.5324998 -3.923602e-38 -3.9235973e-38
-3.9235853e-38 -3.9235993e-38 -0.19815196 -0.42159694 -0.25967282 0.027416775 -0.13295674 -3.9143098e-38
3.9123233e-38 3.9153792e-38 3.9154614e-38 -0.14870717 -0.11767761 -0.26374647 -0.15317462 -0.21828495
-3.6951862e-38 -3.6922373e-38 -3.6778936e-38 -3.6764907e-38 -0.36899838 -0.24649028 -0.16169076 -0.21351273
-0.24973807 -3.8528746e-38 -3.8580527e-38 -3.849926e-38 -3.8445666e-38 -0.2048708 -0.28386402 -0.23540136
-0.009972035 -0.09266014 3.912584e-38 3.907688e-38 3.910768e-38 3.9110313e-38 -0.2048723 -0.33823645
-0.45873246 -0.11143469 -0.33093333 -3.913049e-38 -3.9108724e-38 -3.9116958e-38 -3.9118937e-38 -0.27520418
-0.39664754 -0.5442893 -0.4735967 -0.4372007 -3.923418e-38 -3.9234045e-38 -3.9234017e-38 -3.9234196e-38
-0.54659575 -0.30923885 -0.4442781 -0.3905298 -0.36004147 -3.9236279e-38 -3.9236234e-38 -3.9236228e-38
-3.9236267e-38 -0.51235205 -0.4797232 -0.4924155 -0.3019821 -0.33981198 -3.9236312e-38 -3.9236304e-38
-3.9236312e-38 -3.9236332e-38 -0.4241651 -0.3364251 -0.3303817 -0.5126109 -0.44360152 -3.9225735e-38
-3.9226809e-38 -3.922632e-38 -3.9226394e-38 -0.53118277 -0.4856264 -0.28049126 -0.5049578 -0.3371645
-3.9235497e-38 -3.9235668e-38 -3.9235497e-38 -3.923556e-38 -0.37119108 -0.29225355 -0.48774096 -0.46584284
-0.4645561 -3.9236236e-38 -3.9234964e-38 -3.9235354e-38 -3.9236147e-38 -0.550482 -0.56360394 -0.556281
-0.45102537 -0.35948405 -3.9236256e-38 -3.9236236e-38 -3.9236222e-38 -3.9236234e-38 -0.42588356 -0.3796152
-0.52175206 -0.40547273 -0.44106945 -3.9236315e-38 -3.9236312e-38 -3.9236304e-38 -3.9236315e-38 -0.41179094
-0.35062224 -0.484047 -0.55178875 -0.27448955 -3.9229398e-38 -3.9228002e-38 -3.9228115e-38 -3.9229575e-38
-0.3014856 -0.29211214 -0.40480068 -0.4790637 -0.3135193 -3.923572e-38 -3.9235934e-38 -3.9235836e-38
-3.9235785e-38
00000000: ae1e 66bf 9db5 53be 7cd0 993d aca0 4a3f
00000010: c39c 0b40 efda 4b01 b2a6 4801 617f 4701
00000020: 5640 4501 9128 4a3f d96b b83e ee37 093f
00000030: 4f55 cfbe 2bed 10bf 2749 4c81 bf6e 4b81
00000040: 2b72 4a81 4ffe 4981 deec 76bf 1b19 e5bf
00000050: ec6b 81be 16cf d2bf 3a22 26c0 2390 4601
00000060: 2ca0 4501 7dae 4301 10bb 3f01 fd8c ddbd
00000070: 74f2 033f e06b cc3f 8ff1 2340 9d34 0c40
00000080: f7fa 4001 eab6 3701 13e6 1c01 e073 f400
00000090: 00ae 9540 08e5 eb3f b00d 4c40 7d44 0640
000000a0: 436e ccbe 1805 5181 9578 4c81 03b2 4a81
000000b0: 2d04 4681 a1a1 08bf 0082 bebe 0acb e6be
000000c0: ab3c 95be fc70 0bbf f399 5581 239b 5581
000000d0: 769a 5581 e299 5581 f5cc 0ebf b441 efbe
000000e0: f792 0fbf 8105 9cbe e174 e4be 749f 5581
000000f0: 619f 5581 6a9f 5581 7c9f 5581 cf3f eebe
00000100: f87d 0bbf 1eb5 0dbf 38e4 96be 2d9c 9abe
00000110: 7d9f 5581 7d9f 5581 7d9f 5501 779f 5501
00000120: bf3d b1be 33b4 c6be 99e9 10bf 346a 0cbf
00000130: b61b f1be 3695 5581 7097 5581 5a96 5581
00000140: 1695 5581 a1bc 11bf 83c3 10bf 3445 91be
00000150: 30ee 0fbf e851 08bf 089f 5581 f79e 5581
00000160: cc9e 5581 fe9e 5581 59e8 4abe 8edb d7be
00000170: d6f3 84be 2599 e03c d025 08be 841d 5581
00000180: d401 5501 6c2c 5501 912d 5501 b146 18be
00000190: f500 f1bd c709 87be cfd9 1cbe 1786 5fbe
000001a0: 612f 4981 4706 4981 5b3e 4881 cd2a 4881
000001b0: 5bed bcbe f367 7cbe 4392 25be 15a3 5abe
000001c0: 56bb 7fbe 3cc5 5181 680d 5281 239c 5181
000001d0: 7051 5181 a7c9 51be a056 91be 0e0d 71be
000001e0: bf61 23bc 99c4 bdbd 7605 5501 39c1 5401
000001f0: 27ec 5401 d2ef 5401 0bca 51be 542d adbe
00000200: fbde eabe df37 e4bd 1870 a9be f10b 5581
00000210: 9bed 5481 15f9 5481 d7fb 5481 90e7 8cbe
00000220: 6315 cbbe 8b56 0bbf 447b f2be c5d8 dfbe
00000230: 779c 5581 479c 5581 3d9c 5581 7d9c 5581
00000240: b3ed 0bbf 8e54 9ebe 6b78 e3be 86f3 c7be
00000250: 5b57 b8be 649f 5581 549f 5581 529f 5581
00000260: 609f 5581 8129 03bf 479e f5be e21d fcbe
00000270: 669d 9abe d6fb adbe 709f 5581 6d9f 5581
00000280: 709f 5581 779f 5581 2b2c d9be e93f acbe
00000290: ca27 a9be 783a 03bf bd1f e3be b290 5581
000002a0: 3192 5581 8391 5581 9d91 5581 98fb 07bf
000002b0: 06a4 f8be 8d9c 8fbe ea44 01bf d3a0 acbe
000002c0: 4d9e 5581 8a9e 5581 4d9e 5581 649e 5581
000002d0: c20c bebe 42a2 95be 2fb9 f9be f482 eebe
000002e0: 4cda edbe 559f 5581 8f9d 5581 1a9e 5581
000002f0: 359f 5581 63ec 0cbf 5948 10bf 6e68 0ebf
00000300: ccec e6be 4b0e b8be 5c9f 5581 559f 5581
00000310: 509f 5581 549f 5581 690d dabe ec5c c2be
00000320: 8b91 05bf 1f9a cfbe dbd3 e1be 719f 5581
00000330: 709f 5581 6d9f 5581 719f 5581 43d6 d2be
00000340: c284 b3be 02d5 f7be 0742 0dbf e589 8cbe
00000350: cd95 5581 db93 5581 0394 5581 0c96 5581
00000360: 525c 9abe b98f 95be 0942 cfbe d647 f5be
00000370: 9a85 a0be 9d9e 5581 e99e 5581 c69e 5581
00000380: b49e 5581

block.conv2.bias f4 [5]
-1.0104847 -0.283825 -0.21664007 -0.40305847 -0.3916948
00000000: 9057 81bf 8351 91be e5d6 5dbe ae5d cebe
00000010: 398c c8be

block.conv2.mask f4 [5, 5, 3, 3]
1.0 1.0 1.0 1.0 1.0 0.0 0.0 0.0
0.0 1.0 1.0 1.0 1.0 1.0 0.0 0.0
0.0 0.0 1.0 1.0 1.0 1.0 1.0 0.0
0.0 0.0 0.0 1.0 1.0 1.0 1.0 1.0
0.0 0.0 0.0 0.0 1.0 1.0 1.0 1.0
1.0 0.0 0.0 0.0 0.0 1.0 1.0 1.0
1.0 1.0 0.0 0.0 0.0 0.0 1.0 1.0
1.0 1.0 1.0 0.0 0.0 0.0 0.0 1.0
1.0 1.0 1.0 1.0 0.0 0.0 0.0 0.0
1.0 1.0 1.0 1.0 1.0 0.0 0.0 0.0
0.0 1.0 1.0 1.0 1.0 1.0 0.0 0.0
0.0 0.0 1.0 1.0 1.0 1.0 1.0 0.0
0.0 0.0 0.0 1.0 1.0 1.0 1.0 1.0
0.0 0.0 0.0 0.0 1.0 1.0 1.0 1.0
1.0 0.0 0.0 0.0 0.0 1.0 1.0 1.0
1.0 1.0 0.0 0.0 0.0 0.0 1.0 1.0
1.0 1.0 1.0 0.0 0.0 0.0 0.0 1.0
1.0 1.0 1.0 1.0 0.0 0.0 0.0 0.0
1.0 1.0 1.0 1.0 1.0 0.0 0.0 0.0
0.0 1.0 1.0 1.0 1.0 1.0 0.0 0.0
0.0 0.0 1.0 1.0 1.0 1.0 1.0 0.0
0.0 0.0 0.0 1.0 1.0 1.0 1.0 1.0
0.0 0.0 0.0 0.0 1.0 1.0 1.0 1.0
1.0 0.0 0.0 0.0 0.0 1.0 1.0 1.0
1.0 1.0 0.0 0.0 0.0 0.0 1.0 1.0
1.0 1.0 1.0 0.0 0.0 0.0 0.0 1.0
1.0 1.0 1.0 1.0 0.0 0.0 0.0 0.0
1.0 1.0 1.0 1.0 1.0 0.0 0.0 0.0
0.0
00000000: 0000 803f 0000 803f 0000 803f 0000 803f
00000010: 0000 803f 0000 0000 0000 0000 0000 0000
00000020: 0000 0000 0000 803f 0000 803f 0000 803f
00000030: 0000 803f 0000 803f 0000 0000 0000 0000
00000040: 0000 0000 0000 0000 0000 803f 0000 803f
00000050: 0000 803f 0000 803f 0000 803f 0000 0000
00000060: 0000 0000 0000 0000 0000 0000 0000 803f
00000070: 0000 803f 0000 803f 0000 803f 0000 803f
00000080: 0000 0000 0000 0000 0000 0000 0000 0000
00000090: 0000 803f 0000 803f 0000 803f 0000 803f
000000a0: 0000 803f 0000 0000 0000 0000 0000 0000
000000b0: 0000 0000 0000 803f 0000 803f 0000 803f
000000c0: 0000 803f 0000 803f 0000 0000 0000 0000
000000d0: 0000 0000 0000 0000 0000 803f 0000 803f
000000e0: 0000 803f 0000 803f 0000 803f 0000 0000
000000f0: 0000 0000 0000 0000 0000 0000 0000 803f
00000100: 0000 803f 0000 803f 0000 803f 0000 803f
00000110: 0000 0000 0000 0000 0000 0000 0000 0000
00000120: 0000 803f 0000 803f 0000 803f 0000 803f
00000130: 0000 803f 0000 0000 0000 0000 0000 0000
00000140: 0000 0000 0000 803f 0000 803f 0000 803f
00000150: 0000 803f 0000 803f 0000 0000 0000 0000
00000160: 0000 0000 0000 0000 0000 803f 0000 803f
00000170: 0000 803f 0000 803f 0000 803f 0000 0000
00000180: 0000 0000 0000 0000 0000 0000 0000 803f
00000190: 0000 803f 0000 803f 0000 803f 0000 803f
000001a0: 0000 0000 0000 0000 0000 0000 0000 0000
000001b0: 0000 803f 0000 803f 0000 803f 0000 803f
000001c0: 0000 803f 0000 0000 0000 0000 0000 0000
000001d0: 0000 0000 0000 803f 0000 803f 0000 803f
000001e0: 0000 803f 0000 803f 0000 0000 0000 0000
000001f0: 0000 0000 0000 0000 0000 803f 0000 803f
00000200: 0000 803f 0000 803f 0000 803f 0000 0000
00000210: 0000 0000 0000 0000 0000 0000 0000 803f
00000220: 0000 803f 0000 803f 0000 803f 0000 803f
00000230: 0000 0000 0000 0000 0000 0000 0000 0000
00000240: 0000 803f 0000 803f 0000 803f 0000 803f
00000250: 0000 803f 0000 0000 0000 0000 0000 0000
00000260: 0000 0000 0000 803f 0000 803f 0000 803f
00000270: 0000 803f 0000 803f 0000 0000 0000 0000
00000280: 0000 0000 0000 0000 0000 803f 0000 803f
00000290: 0000 803f 0000 803f 0000 803f 0000 0000
000002a0: 0000 0000 0000 0000 0000 0000 0000 803f
000002b0: 0000 803f 0000 803f 0000 803f 0000 803f
000002c0: 0000 0000 0000 0000 0000 0000 0000 0000
000002d0: 0000 803f 0000 803f 0000 803f 0000 803f
000002e0: 0000 803f 0000 0000 0000 0000 0000 0000
000002f0: 0000 0000 0000 803f 0000 803f 0000 803f
00000300: 0000 803f 0000 803f 0000 0000 0000 0000
00000310: 0000 0000 0000 0000 0000 803f 0000 803f
00000320: 0000 803f 0000 803f 0000 803f 0000 0000
00000330: 0000 0000 0000 0000 0000 0000 0000 803f
00000340: 0000 803f 0000 803f 0000 803f 0000 803f
00000350: 0000 0000 0000 0000 0000 0000 0000 0000
00000360: 0000 803f 0000 803f 0000 803f 0000 803f
00000370: 0000 803f 0000 0000 0000 0000 0000 0000
00000380: 0000 0000

block.conv3.weight f4 [10, 5, 1, 1]
-0.30437922 0.13561805 0.46778286 0.11549199 0.03514021 -0.11403483 0.24986008 -0.8980313
-0.03270724 -0.11313178 -0.7294984 0.28351036 0.008601032 0.3673784 0.12574412 -0.26367489
-0.69460166 0.17135204 -0.535842 -0.29856265 -0.5803954 -0.08945689 0.070531525 -0.027769689
-0.69207793 -1.2858427 0.737549 -0.27505597 0.6227682 0.68762 -0.22214027 0.3298605
-0.8530609 0.43986928 0.35663936 -0.38834432 -0.17606756 -0.33961716 -0.2511857 -0.20523404
-0.48848516 -0.012754764 0.41894934 -0.4138405 -0.670171 -0.19910601 -0.3809404 -0.03731958
-0.030324193 -0.07467878
00000000: 98d7 9bbe 75df 0a3e 3c81 ef3e 1087 ec3d
00000010: 2eef 0f3d 188b e9bd 52db 7f3e 61e5 65bf
00000020: 07f8 05bd a2b1 e7bd 68c0 3abf 4528 913e
00000030: 58eb 0c3c 0619 bc3e 11c3 003e 6500 87be
00000040: 6ad1 31bf e976 2f3e f12c 09bf 34dd 98be
00000050: cb94 14bf 2d35 b7bd d572 903d 427d e3bc
00000060: 052c 31bf 7e96 a4bf 03d0 3c3f 23d4 8cbe
00000070: bd6d 1f3f dd07 303f bd78 63be 7ae3 a83e
00000080: 3362 5abf 8c36 e13e 6f99 b63e 11d5 c6be
00000090: 0e4b 34be 4de2 adbe 699b 80be df28 52be
000000a0: ba1a fabe 5cf9 50bc 8780 d63e e7e2 d3be
000000b0: 5490 2bbf 72e2 4bbe 9f0a c3be 6adc 18bd
000000c0: 716a f8bc 30f1 98bd

block.conv3.bias f4 [10]
-0.09913905 -0.27513808 -0.8007153 -0.02381517 -0.4465889 -0.013797829 -0.6017206 -0.4215622
-0.12116472 -0.5748206
00000000: 6a09 cbbd e6de 8cbe aefb 4cbf 0818 c3bc
00000010: 4da7 e4be 4a10 62bc 5c0a 1abf 00d7 d7be
00000020: 3525 f8bd 7127 13bf

block.conv3.mask f4 [10, 5, 1, 1]
1.0 1.0 1.0 1.0 1.0 1.0 1.0 1.0
1.0 1.0 1.0 1.0 1.0 1.0 1.0 1.0
1.0 1.0 1.0 1.0 1.0 1.0 1.0 1.0
1.0 1.0 1.0 1.0 1.0 1.0 1.0 1.0
1.0 1.0 1.0 1.0 1.0 1.0 1.0 1.0
1.0 1.0 1.0 1.0 1.0 1.0 1.0 1.0
1.0 1.0
00000000: 0000 803f 0000 803f 0000 803f 0000 803f
00000010: 0000 803f 0000 803f 0000 803f 0000 803f
00000020: 0000 803f 0000 803f 0000 803f 0000 803f
00000030: 0000 803f 0000 803f 0000 803f 0000 803f
00000040: 0000 803f 0000 803f 0000 803f 0000 803f
00000050: 0000 803f 0000 803f 0000 803f 0000 803f
00000060: 0000 803f 0000 803f 0000 803f 0000 803f
00000070: 0000 803f 0000 803f 0000 803f 0000 803f
00000080: 0000 803f 0000 803f 0000 803f 0000 803f
00000090: 0000 803f 0000 803f 0000 803f 0000 803f
000000a0: 0000 803f 0000 803f 0000 803f 0000 803f
000000b0: 0000 803f 0000 803f 0000 803f 0000 803f
000000c0: 0000 803f 0000 803f

conv2.weight f4 [10, 10, 1, 1]
-53.694324 -54.501205 0.15992105 0.10034663 -7.7973123 -24.42285 0.20701164 0.18233526
0.23743582 -0.21472153 -0.1609153 0.029875493 -0.69038343 -0.42548975 -0.31093803 -0.196371
-0.08655132 -0.23995885 -0.17038824 -0.047142163 -1.7334307 -0.8711996 -0.024017962 -24.129774
-0.08330377 0.0071618967 -10.279911 -0.2883199 -1.2425926 -0.88954467 -0.6589493 -0.5651032
-0.42269036 -0.6642621 -0.34274906 -0.52932024 -0.1183279 -0.41818342 -0.15090299 -0.17106137
-0.4690461 -0.46571922 -0.10392848 0.7679904 -0.50658184 -0.85535854 -0.06694862 -0.053175695
0.05256778 -0.38427195 -7.3820586 -8.810916 -0.41540983 -21.442543 -2.1782317 -0.20800376
-0.25803798 -0.109181926 -12.871817 -0.3059994 0.4932036 -0.7123814 -0.6176508 -53.560787
-23.004314 -0.22086497 -49.20512 -113.91194 3.2187927 -30.664997 0.069422595 1.0865213
-0.43500826 0.1914348 -0.13141128 0.4876226 0.12344279 0.021211559 0.12139588 -6.7495847
-0.4420394 -0.49463454 -0.47265208 -0.19714569 -0.38443026 -0.39768872 -0.15532276 -0.0682749
-0.2997912 -0.35338688 0.15464747 0.21994974 -0.18005311 -0.13231276 0.14301999 0.18490666
-0.1472152 -0.16546404 -0.17294152 0.10086261
00000000: fdc6 56c2 3c01 5ac2 58c2 233e 8982 cd3d
00000010: 9583 f9c0 ff61 c3c1 dcfa 533e 18b6 3a3e
00000020: 6022 733e f6df 5bbe fbc6 24be 73bd f43c
00000030: f8bc 30bf cbd9 d9be 4533 9fbe 7b15 49be
00000040: d241 b1bd c6b7 75be 417a 2ebe 2418 41bd
00000050: 0fe1 ddbf f006 5fbf 51c1 c4bc c709 c1c1
00000060: 2b9b aabd 58ae ea3b 847a 24c1 aa9e 93be
00000070: 460d 9fbf 33b9 63bf e7b0 28bf 9aaa 10bf
00000080: df6a d8be 150d 2abf ce7c afbe 8881 07bf
00000090: e655 f2bd 231c d6be 5086 1abe b62a 2fbe
000000a0: cf26 f0be c072 eebe 74d8 d4bd 059b 443f
000000b0: 59af 01bf c7f8 5abf 5c1c 89bd c2ce 59bd
000000c0: 5051 573d 4bbf c4be d339 ecc0 83f9 0cc1
000000d0: 99b0 d4be 548a abc1 2668 0bc0 f0fe 54be
000000e0: 8e1d 84be c69a dfbd f6f2 4dc1 f4ab 9cbe
000000f0: 2f85 fc3e a15e 36bf 5d1e 1ebf 3f3e 56c2
00000100: d608 b8c1 6d2a 62be 0bd2 44c2 ead2 e3c2
00000110: b300 4e40 ea51 f5c1 6f2d 8e3d 2113 8b3f
00000120: 67b9 debe 7c07 443e ae90 06be aba9 f93e
00000130: 93cf fc3d ddc3 ad3c 679e f83d 99fc d7c0
00000140: fd52 e2be bd40 fdbe 74ff f1be 8fe0 49be
00000150: 0bd4 c4be db9d cbbe ee0c 1fbe b6d3 8bbd
00000160: 3b7e 99be 20ef b4be e85b 1e3e 813a 613e
00000170: d85f 38be ff7c 07be d573 123e 2c58 3d3e
00000180: 95bf 16be 686f 29be 9517 31be 0e91 ce3d

conv2.bias f4 [10]
-1.5069108 -0.47057405 0.8288252 -0.609649 -0.10080051 1.0242898 -0.15457635 -5.4063845
-0.58249813 1.452892
00000000: 74e2 c0bf 15ef f0be e32d 543f f511 1cbf
00000010: 7f70 cebd ee1b 833f 4349 1ebe 1a01 adc0
00000020: 991e 15bf 5df8 b93f

conv2.mask f4 [10, 10, 1, 1]
1.0 1.0 1.0 1.0 1.0 1.0 1.0 1.0
1.0 1.0 1.0 1.0 1.0 1.0 1.0 1.0
1.0 1.0 1.0 1.0 1.0 1.0 1.0 1.0
1.0 1.0 1.0 1.0 1.0 1.0 1.0 1.0
1.0 1.0 1.0 1.0 1.0 1.0 1.0 1.0
1.0 1.0 1.0 1.0 1.0 1.0 1.0 1.0
1.0 1.0 1.0 1.0 1.0 1.0 1.0 1.0
1.0 1.0 1.0 1.0 1.0 1.0 1.0 1.0
1.0 1.0 1.0 1.0 1.0 1.0 1.0 1.0
1.0 1.0 1.0 1.0 1.0 1.0 1.0 1.0
1.0 1.0 1.0 1.0 1.0 1.0 1.0 1.0
1.0 1.0 1.0 1.0 1.0 1.0 1.0 1.0
1.0 1.0 1.0 1.0
00000000: 0000 803f 0000 803f 0000 803f 0000 803f
00000010: 0000 803f 0000 803f 0000 803f 0000 803f
00000020: 0000 803f 0000 803f 0000 803f 0000 803f
00000030: 0000 803f 0000 803f 0000 803f 0000 803f
00000040: 0000 803f 0000 803f 0000 803f 0000 803f
00000050: 0000 803f 0000 803f 0000 803f 0000 803f
00000060: 0000 803f 0000 803f 0000 803f 0000 803f
00000070: 0000 803f 0000 803f 0000 803f 0000 803f
00000080: 0000 803f 0000 803f 0000 803f 0000 803f
00000090: 0000 803f 0000 803f 0000 803f 0000 803f
000000a0: 0000 803f 0000 803f 0000 803f 0000 803f
000000b0: 0000 803f 0000 803f 0000 803f 0000 803f
000000c0: 0000 803f 0000 803f 0000 803f 0000 803f
000000d0: 0000 803f 0000 803f 0000 803f 0000 803f
000000e0: 0000 803f 0000 803f 0000 803f 0000 803f
000000f0: 0000 803f 0000 803f 0000 803f 0000 803f
00000100: 0000 803f 0000 803f 0000 803f 0000 803f
00000110: 0000 803f 0000 803f 0000 803f 0000 803f
00000120: 0000 803f 0000 803f 0000 803f 0000 803f
00000130: 0000 803f 0000 803f 0000 803f 0000 803f
00000140: 0000 803f 0000 803f 0000 803f 0000 803f
00000150: 0000 803f 0000 803f 0000 803f 0000 803f
00000160: 0000 803f 0000 803f 0000 803f 0000 803f
00000170: 0000 803f 0000 803f 0000 803f 0000 803f
00000180: 0000 803f 0000 803f 0000 803f 0000 803f

conv3.weight f4 [256, 10, 1, 1]
-1.2450415 0.43304008 0.73866254 0.5722854 0.06313787 0.039781895 -1.2950757 0.9322601
-0.14068472 2.334256 -5.2291756 -0.75564444 1.8379903 -0.5501593 -0.87632 -1.2146667
-2.631235 -0.47807956 -0.6191846 1.7171834 -5.9591117 -0.3367617 1.7270719 -0.18204433
-0.49251443 -0.4426357 -3.3305254 -0.86551654 -0.3846447 1.5929363 -3.225845 -0.7796641
2.1359186 -0.16452084 -0.53018093 -0.47224826 -3.0668738 -0.6522547 -0.33332637 1.4274218
-5.001788 -0.60868955 1.5954144 -0.13685627 -0.4541068 0.23190753 -3.2990875 -0.82859313
-0.26213497 1.4008404 -5.5619564 -0.57679397 1.390014 -0.3188116 -1.8503469 0.16596702
-2.8802848 -0.6608631 -0.16466512 1.2747881 -5.990832 -0.3501164 1.5771364 -0.23508498
-1.1627406 -0.0067604505 -3.06923 -0.76036865 -0.3656443 1.2703149 -4.811487 -0.5121302
1.147659 -0.40288746 -0.7291258 -0.0741464 -3.3771129 -0.6546389 0.048092574 1.171093
-2.8404946 -0.45141262 1.4617398 -0.17646465 -1.3632305 0.05439664 -3.1819422 -0.7228212
-0.3877704 1.1616815 -4.9977555 -0.6059342 1.4505789 -0.38505235 -1.9047631 0.32317165
-3.3475392 -0.76690966 -0.13523546 1.1524134 -4.667556 -0.5718906 1.2787856 -0.6775711
-0.9583818 0.40799028 -2.9456747 -0.5986003 -0.1360713 1.0672923 -3.7270699 -0.32759312
0.8425112 -0.45843863 -1.2573543 0.79812735 -2.639378 -0.6423411 -0.12250492 1.1331952
-2.5041604 -0.8775138 1.1234968 -0.525133 -0.51687855 0.29664114 -2.8488383 -0.8688088
0.10675147 1.0880752 -4.2753596 -0.35902026 0.65942025 -0.43386123 -1.2451693 0.7499549
-3.5046191 -0.7435464 -0.3478422 0.89592326 -0.96520424 -0.6874049 0.9498581 -0.58251613
-0.038212765 0.8623452 -2.739212 -0.82042646 -0.023576505 0.95281833 -4.1580486 -0.7475385
0.6948143 0.4866688 -1.5544591 0.6968809 -3.0835223 -0.8080244 -0.15821983 0.95932746
-3.19849 -0.41817662 0.09342332 -0.30599973 -1.0981777 0.930857 -3.3568697 -0.83756125
0.10885392 0.90430844 -2.8707256 -0.4854449 0.6841407 -0.47061062 -1.8906131 0.93569
-3.1553721 -0.45125282 -0.5706045 0.8380918 -2.4435148 -0.55038387 0.15711346 -0.15049542
-1.0210887 1.0934255 -3.424664 -0.8203675 -0.49936095 0.8501326 -3.605889 -0.7190179
0.6548043 -0.19001302 -1.2222005 1.1375912 -2.7404795 -1.0259978 -0.37443218 0.6048244
-2.2626696 -0.7171343 0.5736777 -0.43275547 -1.6065516 1.1007456 -2.802205 -0.6475633
-0.27411842 0.794034 -2.5993817 -0.2500658 0.12500541 -0.18903294 -0.0407761 1.1851007
-3.4863372 -0.73718417 -0.36269718 0.80153674 -2.379098 -0.6963369 -0.06987665 -0.7052138
-1.5751855 1.6077654 -3.9277096 -0.93350273 -0.5222505 0.86893964 -3.8099449 -0.8819843
-0.29142764 -0.45594198 -1.4260533 1.2753917 -3.3033142 -0.66188025 -0.6967725 0.5735691
-3.7749252 -0.74706304 -0.21867175 -0.5566437 -0.12034609 0.97432524 -3.0607703 -0.8826624
-0.3635332 0.72965616 -5.0034637 -0.70771813 0.19318685 -0.27868202 -1.3300973 1.5028192
00000000: 855d 9fbf 6eb7 dd3e fd18 3d3f 4c81 123f
00000010: 6d4e 813d 57f2 223d 0ac5 a5bf 99a8 6e3f
00000020: a80f 10be 7364 1540 6855 a7c0 ea71 41bf
00000030: 4443 eb3f 3dd7 0cbf 8256 60bf 337a 9bbf
00000040: 2766 28c0 d8c6 f4be e282 1ebf aacc db3f
00000050: 0bb1 bec0 086c acbe b110 dd3f d469 3abe
00000060: da2a fcbe 25a1 e2be 5427 55c0 7e92 5dbf
00000070: 26f0 c4be 56e5 cb3f 3f74 4ec0 1198 47bf
00000080: e4b2 0840 2778 28be f0b9 07bf 86ca f1be
00000090: a947 44c0 2afa 26bf c1a9 aabe c2b5 b63f
000000a0: a60e a0c0 14d3 1bbf 8a36 cc3f 0d24 0cbe
000000b0: b080 e8be 2b79 6d3e 4024 53c0 ae1e 54bf
000000c0: 8e36 86be bd4e b33f 8cfb b1c0 c5a8 13bf
000000d0: fbeb b13f 463b a3be 2bd8 ecbf 42f3 293e
000000e0: 9656 38c0 532e 29bf f99d 28be 422c a33f
000000f0: e5b4 bfc0 7542 b3be 9bdf c93f 1eba 70be
00000100: afd4 94bf c586 ddbb 446e 44c0 85a7 42bf
00000110: bb35 bbbe ae99 a23f b4f7 99c0 f71a 03bf
00000120: 7de6 923f 4447 cebe fda7 3abf 11da 97bd
00000130: 9e22 58c0 6a96 27bf b8fc 443d 60e6 953f
00000140: aaca 35c0 8e1f e7be 4a1a bb3f 26b3 34be
00000150: 567e aebf 03cf 5e3d f1a4 4bc0 cf0a 39bf
00000160: d889 c6be fbb1 943f 9ded 9fc0 811e 1bbf
00000170: 92ac b93f 9525 c5be 47cf f3bf c176 a53e
00000180: 153e 56c0 3154 44bf 2a7b 0abe 4882 933f
00000190: 9e5c 95c0 6c67 12bf 3faf a33f 4d75 2dbf
000001a0: 8258 75bf 1ae4 d03e ef85 3cc0 df3d 19bf
000001b0: 4656 0bbe 099d 883f 5088 6ec0 49ba a7be
000001c0: d0ae 573f 78b8 eabe fcf0 a0bf 1352 4c3f
000001d0: 92eb 28c0 7770 24bf dce3 fabd 8a0c 913f
000001e0: 2a44 20c0 bfa4 60bf bece 8f3f 1e6f 06bf
000001f0: 2752 04bf 59e1 973e 5e53 36c0 416a 5ebf
00000200: 84a0 da3d 0c46 8b3f bfcf 88c0 81d1 b7be
00000210: c4cf 283f 0f23 debe b561 9fbf 0bfd 3f3f
00000220: ae4b 60c0 0f59 3ebf 5f18 b2be 3a5b 653f
00000230: a017 77bf c4f9 2fbf e729 733f c71f 15bf
00000240: fd84 1cbd a8c2 5c3f 404f 2fc0 7807 52bf
00000250: 8423 c1bc e7eb 733f bc0e 85c0 af5e 3fbf
00000260: 5adf 313f a72c f93e 84f8 c6bf c966 323f
00000270: 6e58 45c0 b0da 4ebf 6104 22be 7c96 753f
00000280: 0fb4 4cc0 3f1b d6be ba54 bf3d ffab 9cbe
00000290: 1691 8cbf a54c 6e3f f4d6 56c0 6a6a 56bf
000002a0: ceee de3d c280 673f f8b9 37c0 3c8c f8be
000002b0: d823 2f3f e0f3 f0be 9cff f1bf 6189 6f3f
000002c0: 9ef1 49c0 9c0a e7be 2313 12bf 2f8d 563f
000002d0: 8c62 1cc0 f5e5 0cbf 5ae2 203e 791b 1abe
000002e0: 09b3 82bf 5ef5 8b3f b22d 5bc0 9b03 52bf
000002f0: 3dac ffbe 4aa2 593f e3c6 66c0 8f11 38bf
00000300: 41a1 273f c692 42be 1171 9cbf 979c 913f
00000310: 0464 2fc0 e553 83bf 93b5 bfbe c6d5 1a3f
00000320: 94cf 10c0 1d96 37bf 8bdc 123f 2092 ddbe
00000330: 7ca3 cdbf 3be5 8c3f 5457 33c0 b5c6 25bf
00000340: 4059 8cbe d045 4b3f 455c 26c0 a008 80be
00000350: 6b01 003e da91 41be d704 27bd 61b1 973f
00000360: 2620 5fc0 1ab8 3cbf 72b3 b9be 8331 4d3f
00000370: 2443 18c0 2343 32bf 7d1b 8fbd e488 34bf
00000380: ae9f c9bf 42cb cd3f 985f 7bc0 09fa 6ebf
00000390: 35b2 05bf d472 5e3f 23d6 73c0 b9c9 61bf
000003a0: 0136 95be 3a71 e9be ea88 b6bf 0940 a33f
000003b0: 8069 53c0 fc70 29bf af5f 32bf 6dd5 123f
000003c0: 6098 71c0 863f 3fbf 7deb 5fbe 3480 0ebf
000003d0: 0378 f6bd 616d 793f a9e3 43c0 2af6 61bf
000003e0: 0621 babe bfca 3a3f 601c a0c0 042d 35bf
000003f0: c6d2 453e 69af 8ebe a140 aabf 615c c03f

conv3.bias f4 [256]
-2.1784236 -5.8483233 -5.168306 -4.772283 -4.3603673 -3.9520633 -3.861587 -3.9081686
-4.11599 -3.6946034 -3.587653 -3.5818365 -3.5357816 -3.4361892 -3.5743794 -3.5705514
-3.589659 -3.3171408 -3.3541765 -3.1905751 -3.1821399 -2.836567 -3.3046036 -3.2835643
-3.1060514 -2.648202 -3.2220445 -3.047265 -2.8543313 -2.6744447 -3.16851 -2.6785724
-2.960176 -3.4053738 -3.0441933 -2.4746356 -2.7557144 -2.6322064 -2.7961345 -2.7366452
-2.6112328 -2.617448 -2.715727 -2.963626 -2.8145447 -2.7027795 -2.7962365 -2.45671
-2.6512978 -2.606382 -2.3178632 -2.3858259 -2.6814032 -2.4412053 -2.7076862 -2.6375537
-2.028512 -2.1018672 -2.6229308 -2.3366039 -2.3865156 -2.3252769 -2.1493185 -1.9891026
-1.5502772 -2.1775534 -2.2320802 -2.443497 -2.4104867 -1.9951631 -2.0108562 -1.8634838
-1.9588435 -1.8118113 -2.3415 -1.8671036 -2.304293 -2.1438694 -1.6302484 -2.0170565
-2.0734425 -1.8890861 -1.876664 -1.9407825 -1.2044619 -1.5014414 -1.4882886 -2.016351
-1.8799005 -1.9362507 -1.8068403 -1.6084704 -1.632789 -1.5638834 -1.4292679 -1.6722345
-1.440809 -1.7632464 -1.5094755 -1.448214 -1.8230426 -1.7564075 -1.3595318 -1.2474713
-1.594306 -1.7064424 -1.2750705 -1.3359581 -1.1901621 -1.2414271 -1.6354913 -1.3024347
-1.2435291 -1.1684384 -1.1341958 -1.3100368 -1.1296468 -1.6565219 -1.1301886 -1.0265225
-1.3694606 -0.91425365 -0.88658047 -1.4217752 -1.3501418 -1.1272676 -1.1909676 -0.76863277
0.020781625 -0.854836 -0.7248525 -0.6532118 -0.87187696 -0.761893 -1.0382959 -0.78215975
-0.88333577 -0.97166324 -0.8720169 -0.5668861 -0.6976988 -0.4978849 -0.92666864 -0.94638497
-0.6129839 -0.6176314 -0.86621916 -1.0526291 -0.5980906 -0.78403735 -0.82268155 -0.38649198
-0.62181556 -0.90966576 -0.6703101 -0.6247836 -0.73788035 -0.7498157 -0.70630676 -0.8049757
-0.34616765 -0.58179843 -0.58184737 -0.50308067 -0.47373492 -0.7628686 -0.7490337 -0.5102007
-0.04565732 -0.25214797 -0.09750783 -0.70093894 -0.3036039 -0.71865517 -0.55887854 -0.42002478
-0.57504827 -0.6325399 -0.456374 -0.62632376 -0.54653233 -0.36132404 -0.9055404 -0.19703701
-0.1676971 -0.25346723 -0.4166043 -0.39551756 -0.15936573 -0.26625106 -0.2635577 0.23897843
-0.16272497 -0.36096552 -0.5300872 -0.05573774 -0.043816652 -0.14852774 -0.16082954 -0.19394003
-0.2587268 -0.30694216 -0.121325426 0.12796009 -0.37231392 -0.2155847 -0.31778622 -0.012415792
-0.357763 -0.15658596 -0.109145366 -0.095657595 -0.036532387 0.013106998 -0.13078411 0.109852225
0.036785282 -0.024932059 -0.18080784 -0.21652862 -0.25231847 -0.19800715 -0.06524673 -0.045506354
-0.22414334 0.025308894 0.12320562 0.0802452 0.38348976 -0.3413895 -0.06447344 0.18579276
0.11182416 0.2285024 -0.03521061 0.05745832 0.057730366 0.1427488 -0.32046345 -0.0805197
-0.093643814 0.13440958 -0.012464306 -0.15582502 -0.019768227 0.17514743 -0.31616676 -0.054194454
-0.3714381 -0.20424509 0.38929105 1.0006188 2.4717846 3.2022974 2.4212022 1.3747042
00000000: 4b6b 0bc0 7725 bbc0 c362 a5c0 8bb6 98c0
00000010: 2188 8bc0 9bee 7cc0 3e24 77c0 6f1f 7ac0
00000020: 31b6 83c0 6274 6cc0 1b9c 65c0 cf3c 65c0
00000030: 3f4a 62c0 86ea 5bc0 a2c2 64c0 ea83 64c0
00000040: f9bc 65c0 094c 54c0 d4aa 56c0 6232 4cc0
00000050: 2ea8 4bc0 508a 35c0 a07e 53c0 eb25 52c0
00000060: 8cc9 46c0 247c 29c0 fa35 4ec0 6406 43c0
00000070: 5dad 36c0 1a2a 2bc0 dec8 4ac0 bb6d 2bc0
00000080: 8673 3dc0 a5f1 59c0 10d4 42c0 6e60 1ec0
00000090: a05d 30c0 1276 28c0 def3 32c0 3225 2fc0
000000a0: 701e 27c0 4584 27c0 79ce 2dc0 0cac 3dc0
000000b0: 8021 34c0 57fa 2cc0 8af5 32c0 bd3a 1dc0
000000c0: ddae 29c0 f6ce 26c0 df57 14c0 5fb1 18c0
000000d0: 1c9c 2bc0 b53c 1cc0 bb4a 2dc0 aecd 28c0
000000e0: 24d3 01c0 fe84 06c0 19de 27c0 eb8a 15c0
000000f0: acbc 18c0 56d1 14c0 6f8e 09c0 ea9a febf
00000100: 7c6f c6bf 095d 0bc0 67da 0ec0 4162 1cc0
00000110: 6a45 1ac0 8161 ffbf deb1 00c0 a386 eebf
00000120: 62bb fabf 6fe9 e7bf 23db 15c0 40fd eebf
00000130: 8979 13c0 2835 09c0 fbab d0bf 7417 01c0
00000140: 48b3 04c0 93cd f1bf 8736 f0bf 906b f8bf
00000150: cf2b 9abf 3b2f c0bf 3e80 bebf e50b 01c0
00000160: 94a0 f0bf 10d7 f7bf 8b46 e7bf 5ce2 cdbf
00000170: 3bff d0bf 552d c8bf 40f2 b6bf c80b d6bf
00000180: 6e6c b8bf 0fb2 e1bf 7e36 c1bf 145f b9bf
00000190: 7659 e9bf f6d1 e0bf 2305 aebf 24ad 9fbf
000001a0: 3812 ccbf b46c dabf 8335 a3bf ad00 abbf
000001b0: 3b57 98bf 15e7 9ebf c757 d1bf 2eb6 a6bf
000001c0: f62b 9fbf 648f 95bf 542d 91bf 49af a7bf
000001d0: 4498 90bf e908 d4bf 05aa 90bf 1765 83bf
000001e0: 7c4a afbf 870c 6abf f0f6 62bf bbfc b5bf
000001f0: 72d1 acbf 4e4a 90bf a071 98bf 1ec5 44bf
00000200: 3a3e aa3c 88d6 5abf ef8f 39bf e338 27bf
00000210: 5433 5fbf 6b0b 43bf e1e6 84bf 9f3b 48bf
00000220: 4b22 62bf ecbe 78bf 803c 5fbf 731f 11bf
00000230: 639c 32bf c5ea febe 283a 6dbf 4946 72bf
00000240: 83ec 1cbf 171d 1ebf 8ac0 5dbf 8dbc 86bf
00000250: 771c 19bf acb6 48bf 429b 52bf 47e2 c5be
00000260: 4e2f 1fbf dbdf 68bf 7199 2bbf d1f1 1fbf
00000270: bae5 3cbf ecf3 3fbf 85d0 34bf e312 4ebf
00000280: e33c b1be bef0 14bf f3f3 14bf e5c9 00bf
00000290: 628d f2be 5b4b 43bf acc0 3fbf 839c 02bf
000002a0: 2c03 3bbd 8a19 81be 2fb2 c7bd bc70 33bf
000002b0: f871 9bbe c9f9 37bf aa12 0fbf 7d0d d7be
000002c0: 5d36 13bf 23ee 21bf daa9 e9be c156 20bf
000002d0: 8be9 0bbf 77ff b8be 7fd1 67bf 12c4 49be
000002e0: cab8 2bbe 75c6 81be 294d d5be 4781 cabe
000002f0: c530 23be 0f52 88be 09f1 86be c3b6 743e
00000300: 60a1 26be 79d0 b8be cbb3 07bf 424d 64bd
00000310: 1779 33bd a817 18be 80b0 24be 3798 46be
00000320: d777 84be 8627 9dbe 7779 f8bd f807 033e
00000330: ee9f bebe 3cc2 5cbe e0b4 a2be 9b6b 4bbc
00000340: b62c b7be 1258 20be 9b87 dfbd 21e8 c3bd
00000350: fca2 15bd bcbe 563c 45ec 05be 34fa e03d
00000360: 2aac 163d 513e ccbc b125 39be aeb9 5dbe
00000370: e32f 81be 63c2 4abe 14a0 85bd df64 3abd
00000380: d585 65be 9954 cf3c 3a53 fc3d 9857 a43d
00000390: c558 c43e 9bca aebe a70a 84bd 7540 3e3e
000003a0: 1104 e53d 88fc 693e 0039 10bd 6a59 6b3d
000003b0: ad76 6c3d be2c 123e c913 a4be 83e7 a4bd
000003c0: 54c8 bfbd aaa2 093e 1737 4cbc 9890 1fbe
000003d0: faf0 a1bc d959 333e 9ce0 a1be 01fb 5dbd
000003e0: 222d bebe a025 51be 2851 c73e 4714 803f
000003f0: b831 1e40 71f2 4c40 faf4 1a40 4ff6 af3f

conv3.mask f4 [256, 10, 1, 1]
1.0 1.0 1.0 1.0 1.0 1.0 1.0 1.0
1.0 1.0 1.0 1.0 1.0 1.0 1.0 1.0
1.0 1.0 1.0 1.0 1.0 1.0 1.0 1.0
1.0 1.0 1.0 1.0 1.0 1.0 1.0 1.0
1.0 1.0 1.0 1.0 1.0 1.0 1.0 1.0
1.0 1.0 1.0 1.0 1.0 1.0 1.0 1.0
1.0 1.0 1.0 1.0 1.0 1.0 1.0 1.0
1.0 1.0 1.0 1.0 1.0 1.0 1.0 1.0
1.0 1.0 1.0 1.0 1.0 1.0 1.0 1.0
1.0 1.0 1.0 1.0 1.0 1.0 1.0 1.0
1.0 1.0 1.0 1.0 1.0 1.0 1.0 1.0
1.0 1.0 1.0 1.0 1.0 1.0 1.0 1.0
1.0 1.0 1.0 1.0 1.0 1.0 1.0 1.0
1.0 1.0 1.0 1.0 1.0 1.0 1.0 1.0
1.0 1.0 1.0 1.0 1.0 1.0 1.0 1.0
1.0 1.0 1.0 1.0 1.0 1.0 1.0 1.0
1.0 1.0 1.0 1.0 1.0 1.0 1.0 1.0
1.0 1.0 1.0 1.0 1.0 1.0 1.0 1.0
1.0 1.0 1.0 1.0 1.0 1.0 1.0 1.0
1.0 1.0 1.0 1.0 1.0 1.0 1.0 1.0
1.0 1.0 1.0 1.0 1.0 1.0 1.0 1.0
1.0 1.0 1.0 1.0 1.0 1.0 1.0 1.0
1.0 1.0 1.0 1.0 1.0 1.0 1.0 1.0
1.0 1.0 1.0 1.0 1.0 1.0 1.0 1.0
1.0 1.0 1.0 1.0 1.0 1.0 1.0 1.0
1.0 1.0 1.0 1.0 1.0 1.0 1.0 1.0
1.0 1.0 1.0 1.0 1.0 1.0 1.0 1.0
1.0 1.0 1.0 1.0 1.0 1.0 1.0 1.0
1.0 1.0 1.0 1.0 1.0 1.0 1.0 1.0
1.0 1.0 1.0 1.0 1.0 1.0 1.0 1.0
1.0 1.0 1.0 1.0 1.0 1.0 1.0 1.0
1.0 1.0 1.0 1.0 1.0 1.0 1.0 1.0
00000000: 0000 803f 0000 803f 0000 803f 0000 803f
00000010: 0000 803f 0000 803f 0000 803f 0000 803f
00000020: 0000 803f 0000 803f 0000 803f 0000 803f
00000030: 0000 803f 0000 803f 0000 803f 0000 803f
00000040: 0000 803f 0000 803f 0000 803f 0000 803f
00000050: 0000 803f 0000 803f 0000 803f 0000 803f
00000060: 0000 803f 0000 803f 0000 803f 0000 803f
00000070: 0000 803f 0000 803f 0000 803f 0000 803f
00000080: 0000 803f 0000 803f 0000 803f 0000 803f
00000090: 0000 803f 0000 803f 0000 803f 0000 803f
000000a0: 0000 803f 0000 803f 0000 803f 0000 803f
000000b0: 0000 803f 0000 803f 0000 803f 0000 803f
000000c0: 0000 803f 0000 803f 0000 803f 0000 803f
000000d0: 0000 803f 0000 803f 0000 803f 0000 803f
000000e0: 0000 803f 0000 803f 0000 803f 0000 803f
000000f0: 0000 803f 0000 803f 0000 803f 0000 803f
00000100: 0000 803f 0000 803f 0000 803f 0000 803f
00000110: 0000 803f 0000 803f 0000 803f 0000 803f
00000120: 0000 803f 0000 803f 0000 803f 0000 803f
00000130: 0000 803f 0000 803f 0000 803f 0000 803f
00000140: 0000 803f 0000 803f 0000 803f 0000 803f
00000150: 0000 803f 0000 803f 0000 803f 0000 803f
00000160: 0000 803f 0000 803f 0000 803f 0000 803f
00000170: 0000 803f 0000 803f 0000 803f 0000 803f
00000180: 0000 803f 0000 803f 0000 803f 0000 803f
00000190: 0000 803f 0000 803f 0000 803f 0000 803f
000001a0: 0000 803f 0000 803f 0000 803f 0000 803f
000001b0: 0000 803f 0000 803f 0000 803f 0000 803f
000001c0: 0000 803f 0000 803f 0000 803f 0000 803f
000001d0: 0000 803f 0000 803f 0000 803f 0000 803f
000001e0: 0000 803f 0000 803f 0000 803f 0000 803f
000001f0: 0000 803f 0000 803f 0000 803f 0000 803f
00000200: 0000 803f 0000 803f 0000 803f 0000 803f
00000210: 0000 803f 0000 803f 0000 803f 0000 803f
00000220: 0000 803f 0000 803f 0000 803f 0000 803f
00000230: 0000 803f 0000 803f 0000 803f 0000 803f
00000240: 0000 803f 0000 803f 0000 803f 0000 803f
00000250: 0000 803f 0000 803f 0000 803f 0000 803f
00000260: 0000 803f 0000 803f 0000 803f 0000 803f
00000270: 0000 803f 0000 803f 0000 803f 0000 803f
00000280: 0000 803f 0000 803f 0000 803f 0000 803f
00000290: 0000 803f 0000 803f 0000 803f 0000 803f
000002a0: 0000 803f 0000 803f 0000 803f 0000 803f
000002b0: 0000 803f 0000 803f 0000 803f 0000 803f
000002c0: 0000 803f 0000 803f 0000 803f 0000 803f
000002d0: 0000 803f 0000 803f 0000 803f 0000 803f
000002e0: 0000 803f 0000 803f 0000 803f 0000 803f
000002f0: 0000 803f 0000 803f 0000 803f 0000 803f
00000300: 0000 803f 0000 803f 0000 803f 0000 803f
00000310: 0000 803f 0000 803f 0000 803f 0000 803f
00000320: 0000 803f 0000 803f 0000 803f 0000 803f
00000330: 0000 803f 0000 803f 0000 803f 0000 803f
00000340: 0000 803f 0000 803f 0000 803f 0000 803f
00000350: 0000 803f 0000 803f 0000 803f 0000 803f
00000360: 0000 803f 0000 803f 0000 803f 0000 803f
00000370: 0000 803f 0000 803f 0000 803f 0000 803f
00000380: 0000 803f 0000 803f 0000 803f 0000 803f
00000390: 0000 803f 0000 803f 0000 803f 0000 803f
000003a0: 0000 803f 0000 803f 0000 803f 0000 803f
000003b0: 0000 803f 0000 803f 0000 803f 0000 803f
000003c0: 0000 803f 0000 803f 0000 803f 0000 803f
000003d0: 0000 803f 0000 803f 0000 803f 0000 803f
000003e0: 0000 803f 0000 803f 0000 803f 0000 803f
000003f0: 0000 803f 0000 803f 0000 803f 0000 803f
